HE-ML/LeNet1_Approx.pt (torch, 16791 bytes, 6 tensors)

weight f4 [4, 1, 5, 5]
-0.11324356 -0.5285599 0.2310875 0.525172 0.25884753 -0.38574454 -0.23759383 0.18317142
0.9651253 0.2708819 -0.35019583 -0.22569555 0.24533227 0.7206815 0.6201079 -0.22573712
-0.3290302 0.014016546 0.2037023 0.13068378 -0.27457452 0.04238314 -0.2111246 -0.3851487
-0.09802865 0.25596294 -0.40949774 -0.80774057 -0.32841516 0.21517392 -0.22575514 -0.8181525
-0.83111733 -0.264784 -0.009733974 -0.34981167 -1.8220644 -0.5627079 0.062275857 0.06764145
-0.60917574 -1.0372843 -0.19588783 -0.046551187 0.35317636 -0.76446325 -0.67213523 -0.101504505
0.34270912 0.50578904 0.3351818 0.33661178 0.32815194 0.20712067 0.23213115 0.48348618
0.28743872 0.32246384 0.17444178 0.4250048 -0.046692055 -0.066568606 0.13249993 -0.12496462
-0.13198677 -1.171516 -1.1169382 -1.4514797 -1.301345 -0.75839996 -0.8250704 -0.6512989
-0.43763587 -0.24362509 -0.67331445 -0.3631714 -0.62405896 -0.80482435 -0.70158666 -0.5640806
-0.56453586 -0.12754475 0.19562137 -0.013155094 -0.13977881 0.09643054 0.43810096 0.83238614
0.5733506 0.14952956 0.1501952 0.6273395 0.8631429 0.5555983 0.0119272 -0.2471571
-0.14721622 0.16602574 0.12420152 -0.04804319
00000000: 3dec e7bd b44f 07bf 34a2 6c3e ac71 063f
00000010: aa87 843e 4f80 c5be cc4b 73be 4a91 3b3e
00000020: 7412 773f 08b1 8a3e de4c b3be bc1c 67be
00000030: 6238 7b3e 957e 383f 64bf 1e3f a227 67be
00000040: a576 a8be a8a5 653c 5697 503e f8d1 053e
00000050: 0895 8cbe f299 2d3d 0c31 58be 3632 c5be
00000060: 3fc3 c8bd 930d 833e b0a9 d1be 16c8 4ebf
00000070: 0826 a8be 8d56 5c3e 5b2c 67be 7172 51bf
00000080: 1bc4 54bf c591 87be 3f7b 1fbc 841a b3be
00000090: 6839 e9bf a00d 10bf f814 7f3d 9a87 8a3d
000000a0: f1f2 1bbf bbc5 84bf d296 48be 75ac 3ebd
000000b0: 88d3 b43e ddb3 43bf 0e11 2cbf 98e1 cfbd
000000c0: 9277 af3e 647b 013f f39c ab3e 6158 ac3e
000000d0: 8803 a83e 7117 543e cab3 6d3e 808b f73e
000000e0: 2b2b 933e fb19 a53e dea0 323e 3b9a d93e
000000f0: 2b40 3fbd 1f55 88bd 10ae 073e 73ed ffbd
00000100: 8a27 07be 3cf4 95bf d5f7 8ebf 16ca b9bf
00000110: 7992 a6bf 8026 42bf d037 53bf 86bb 26bf
00000120: cf11 e0be db78 79be 565e 2cbf 9af1 b9be
00000130: 54c2 1fbf f808 4ebf 2f9b 33bf 9667 10bf
00000140: 6c85 10bf 179b 02be f850 483e 7788 57bc
00000150: 2d22 0fbe 607d c53d c54e e03e 4217 553f
00000160: 1bc7 123f 471e 193e c5cc 193e 5299 203f
00000170: eff6 5c3f b13b 0e3f 4d6a 433c c016 7dbe
00000180: d9bf 16be a702 2a3e 5e5d fe3d f0c8 44bd

bias f4 [4]
-0.35451406 0.36542794 0.23115665 -0.15968491
00000000: de82 b5be 5f19 bb3e 54b4 6c3e 7184 23be

weight f4 [12, 4, 5, 5]
0.0047340277 -0.021253116 0.15046176 0.54759514 0.3350485 -0.14131044 -0.46194008 0.15995415
0.54869086 0.15338041 -0.41077447 -0.31459838 0.34360728 0.4229044 0.20701426 -0.21711825
-0.045695964 0.064902045 0.5831786 -0.24102 0.17787865 0.34805608 0.3192095 0.24067008
-0.9150688 0.407931 0.04026543 0.117056385 -0.0743284 -0.15279305 0.046677213 0.16226692
0.4205386 0.08314462 -0.075326934 0.17367616 0.091273665 0.14419766 -0.07889488 -0.23750316
0.42245448 0.014638501 -0.16884716 -0.2313414 0.12168472 0.24302612 -0.08275538 -0.07896981
-0.06933462 0.18099488 -0.295231 0.06781649 -0.0776898 -0.28467837 -0.543398 0.085519336
0.05069981 -0.21792234 -0.3910589 -0.32961908 0.25879204 0.05336121 -0.4431471 -0.3829312
0.14416158 0.2531102 -0.09024708 -0.22090773 0.15920545 0.32590482 -0.0005599489 0.049758796
-0.001528405 0.13467383 0.31401452 0.10803625 -0.20575897 -0.5654141 0.03475267 0.10649329
-0.37184155 -0.51173824 -0.45430648 0.31752264 0.287297 -0.48645946 0.028446542 0.3850716
0.643627 0.2110575 -0.24357232 0.41895902 0.18457726 0.20498706 -0.45554084 0.3817116
0.19811544 -0.20980875 -0.21931696 -0.33841917 -0.81226444 -0.5188433 -0.23832612 -0.36791945
0.6405731 -0.26195312 -0.03808398 -0.66955656 -0.119222865 0.5662431 -0.14849499 -0.21734558
-0.02984001 0.6999469 -0.048224144 -0.21568476 0.13120842 0.42606065 -0.028240392 -0.20413701
-0.18193242 0.3272439 0.44191766 0.33187893 0.25697294 0.59383225 0.32895908 0.094403945
0.34627232 0.30334052 -0.41078278 -0.2040911 0.04621131 -0.22510667 -0.08413408 -0.35202307
-0.22541569 -0.3049221 -0.33895862 -0.19044648 -0.10809338 -0.36334532 -0.37351686 -0.08278739
0.18530032 -0.19783989 -0.38701844 -0.47075823 -0.11539232 -0.14325054 0.5350832 0.6437285
0.44691974 0.0059911376 -0.43669984 0.34411627 0.618565 0.25832775 -0.19527338 -0.40297642
0.44639432 0.23925155 -0.12854624 -0.1977823 0.3131331 0.054393314 -0.021988543 -0.3427207
-0.03952841 0.23186013 -0.3690857 -0.25351104 -0.16269779 0.10664202 0.38549766 -0.58815676
0.066954754 -0.12627822 -0.5039107 0.310459 0.2997763 -0.08882621 -0.37767702 0.2945321
0.6776307 -0.4449978 -0.5846465 0.31543496 1.0006326 0.03208774 -0.28624535 0.10466485
0.38918966 0.22768164 -0.05409646 0.22006676 0.14867502 0.122129336 0.078993 0.23804456
0.06260506 0.2918454 0.18226452 -0.083170645 -0.56808037 0.055307157 0.00914705 0.7159451
0.26293263 -0.28010955 0.09013535 -0.031973768 -0.09898695 -0.11403307 0.41705704 0.11070319
-0.15926246 -0.5719173 -0.16821302 0.27432212 -0.06849191 -0.24956581 -0.14098905 -0.41518155
-0.64095217 0.15044141 0.15197942 -0.027381992 -0.033256084 -0.039131194 0.4426259 0.019933458
-0.020315608 0.0017190225 -0.1825441 0.40539798 0.3664031 0.59414667 0.22412013 -0.066427335
0.33873478 0.16598791 0.32328206 0.37326726 0.037498187 -0.12780121 -0.12351135 -0.055564526
0.1912046 0.2571492 0.17691855 -0.075583994 -0.307028 -0.56983757 -0.5040986 0.038942795
00000000: e71f 9b3b 041b aebc a612 1a3e 322f 0c3f
00000010: 7a8b ab3e afb3 10be 6983 ecbe 05cb 233e
00000020: 0177 0c3f c10f 1d3e 0851 d2be 0a13 a1be
00000030: 4bed af3e ed86 d83e 8cfb 533e 3f54 5ebe
00000040: b12b 3bbd 5deb 843d 314b 153f f2cd 76be
00000050: d225 363e 6834 b23e 6d6f a33e 3872 763e
00000060: f341 6abf 55dc d03e 5ded 243d 42bb ef3d
00000070: 7d39 98bd c875 1cbe 9b30 3f3d 4d29 263e
00000080: d650 d73e ba47 aa3d 0245 9abd 2ad8 313e
00000090: b0ed ba3d 8da8 133e a493 a1bd 0734 73be
000000a0: f44b d83e 53d6 6f3c 45e6 2cbe c3e4 6cbe
000000b0: d735 f93d d7db 783e a77b a9bd ecba a1bd
000000c0: 4fff 8dbd b956 393e 8528 97be 5fe3 8a3d
000000d0: d41b 9fbd 5dc1 91be 221c 0bbf c324 af3d
000000e0: 9baa 4f3d 0927 5fbe df38 c8be d5c3 a8be
000000f0: 6480 843e 4991 5a3d 2de4 e2be 8f0f c4be
00000100: 189f 133e a997 813e 76d3 b8bd a335 62be
00000110: c106 233e ffdc a63e 89c9 12ba e1cf 4b3d
00000120: c354 c8ba f0e7 093e 83c6 a03e 1c42 dd3d
00000130: 7bb2 52be fabe 10bf d158 0e3d 2719 da3d
00000140: 0462 bebe 4701 03bf dc9a e8be 5492 a23e
00000150: 9818 933e 3711 f9be b908 e93c 1b28 c53e
00000160: bdc4 243f 751f 583e 066b 79be cc81 d63e
00000170: d201 3d3e 21e8 513e a63c e9be b46f c33e
00000180: c6de 4a3e 1bd8 56be a094 60be 4745 adbe
00000190: 90f0 4fbf ead2 04bf c30b 74be f05f bcbe
000001a0: 99fc 233f b81e 86be f3fd 1bbd 0f68 2bbf
000001b0: 1e2b f4bd 4ff5 103f 120f 18be d78f 5ebe
000001c0: 0973 f4bc b82f 333f ae86 45bd 77dc 5cbe
000001d0: 805b 063e 9f24 da3e 6558 e7bc 4b09 51be
000001e0: 7e4c 3abe 838c a73e 0843 e23e 09ec a93e
000001f0: f591 833e 6405 183f 536d a83e db56 c13d
00000200: 9b4a b13e 734f 9b3e 1f52 d2be 42fd 50be
00000210: 1248 3d3d 5d82 66be 7d4e acbd 5e3c b4be
00000220: 5fd3 66be c01e 9cbe fc8b adbe 6704 43be
00000230: 1060 ddbd 6608 babe 9a3d bfbe 6f8c a9bd
00000240: 5ebf 3d3e 8a96 4abe 4827 c6be 3907 f1be
00000250: cf52 ecbd 45b0 12be 36fb 083f 64cb 243f
00000260: aad2 e43e 4e51 c43b 1f97 dfbe 0230 b03e
00000270: 475a 1e3f 8943 843e bff5 47be ed52 cebe
00000280: cc8d e43e 5cfe 743e a0a1 03be 7187 4abe
00000290: fb52 a03e 86cb 5e3d 5121 b4bc 1679 afbe
000002a0: 8be8 21bd be6c 6d3e cdf8 bcbe 33cc 81be
000002b0: 409a 26be 2267 da3d f35f c53e 7191 16bf
000002c0: 931f 893d 144f 01be 4b00 01bf 7bf4 9e3e
000002d0: 477c 993e 84ea b5bd e25e c1be e9cc 963e
000002e0: 3579 2d3f c0d6 e3be 65ab 15bf b180 a13e
000002f0: bb14 803f 6f6e 033d c08e 92be 865a d63d
00000300: de43 c73e 6025 693e 4094 5dbd 2e59 613e
00000310: 443e 183e f21e fa3d 15c7 a13d f4c1 733e
00000320: 1537 803d c36c 953e 8da3 3a3e 5f55 aabd
00000330: b76d 11bf c289 623d 82dd 153c 2e48 373f
00000340: 1b9f 863e 856a 8fbe e298 b83d edf6 02bd
00000350: acb9 cabd 2c8a e9bd 8088 d53e 5bb8 e23d
00000360: b315 23be 2c69 12bf 0940 2cbe f373 8c3e
00000370: 7d45 8cbd 2e8e 7fbe 6f5f 10be ad92 d4be
00000380: 7115 24bf 500d 1a3e 7ea0 1b3e 3350 e0bc
00000390: 8837 08bd 0848 20bd dd9f e23e 7e4b a33c
000003a0: eb6c a6bc d350 e13a d7ec 3abe 5390 cf3e
000003b0: 3099 bb3e ff19 183f bf7f 653e 0e0b 88bd
000003c0: a56e ad3e bcf8 293e 3a85 a53e e31c bf3e
000003d0: b397 193d 52de 02be 85f3 fcbd a197 63bd
000003e0: 23cb 433e 0fa9 833e 232a 353e c8cb 9abd
000003f0: c632 9dbe e0e0 11bf 9b0c 01bf 7b82 1f3d

bias f4 [12]
-0.5728798 0.06939675 0.3715702 0.056937408 -0.41565397 0.22398175 0.2793656 -0.21309943
-0.06784072 -0.032174908 0.17936304 -0.089610554
00000000: 40a8 12bf e21f 8e3d 733e be3e 3337 693d
00000010: 99d0 d4be 795b 653e 0209 8f3e bd36 5abe
00000020: 13f0 8abd d6c9 03bd f2aa 373e bd85 b7bd

weight f4 [10, 192]
0.1774879 -0.28652224 -0.23856315 -0.47147846 -0.079401195 -0.08535983 -0.13137348 0.10049001
0.1708692 -0.20723778 0.1274606 0.6446641 0.233807 -0.28863263 0.32170597 0.59021974
-0.0024897775 0.013232135 -0.093105845 0.25212786 -0.18378973 -0.50135046 -0.06534416 -0.2736091
-0.54713494 -0.4581915 0.4168649 0.20603965 -0.35161456 0.2474602 0.48037064 0.111408606
-0.30781782 -0.19366783 -0.004523325 0.44415608 0.19467899 0.2956613 -0.12185459 0.11566279
0.039619263 -0.1070046 0.32221612 0.20049465 0.089961715 -0.24758583 -0.31406134 -0.16336212
-0.33787146 -0.2152247 0.36072508 0.27471602 0.163482 0.08787749 0.33654562 0.42555344
0.28965858 -0.05894585 0.07072562 0.36758873 0.49628678 -0.013723458 -0.19665244 -0.32937008
0.08537433 -0.1314582 -0.11083165 0.18126273 0.30792245 0.015732432 0.50246537 0.16862838
0.59622955 0.69572145 0.63099694 0.32679173 0.21142645 0.36271766 0.23708458 0.19116521
-0.3442552 -0.047037106 0.12496811 -0.1438015 0.28519207 0.30361024 0.23330896 -0.14700918
-0.24808946 -0.4303763 -0.47717446 0.1427033 -0.3745469 -0.24191755 -0.3784706 0.291967
-0.009855197 -0.07236077 -0.49820665 -0.8601162 0.39942494 -0.038487468 -0.27739176 -0.76961905
0.22736044 0.10465211 0.86634 -0.20430002 0.022268971 0.14078698 0.23923428 -0.06586093
-0.16202939 0.4084981 -0.22262287 0.026717698 0.2973443 0.19425535 0.37224782 0.6291694
0.33140668 -0.07866958 0.10159382 0.4997818 -0.15031224 -0.6648698 -0.71343195 0.06944424
0.22100474 -0.16501592 0.3269275 0.22632569 0.024312442 -0.119850084 0.17027956 0.043208685
-0.78895414 -0.13622887 0.46859437 -0.029841628 0.0069528166 0.13839924 0.12012634 0.06885979
-0.1289927 -0.13750887 -0.3795069 -0.7016829 -0.3134457 -0.2493212 -0.00034794855 -0.3118103
-0.500278 -0.18565312 -0.6359197 0.4382638 -0.5990735 -0.4594657 0.04028311 0.72404957
-0.3941419 -0.28903192 0.19193517 0.157449 0.046001744 0.5297068 -0.16910797 0.21556464
0.08315326 -0.20804605 -0.3314783 -0.09398032 0.16755462 -0.045032404 -0.4990848 -0.19562744
0.21636993 -0.25510022 -0.5614917 -0.012184706 0.6009891 -0.014135458 -0.46240956 0.24056873
0.73503333 0.09547761 -0.2909349 0.17668223 0.23753288 -0.12775293 -0.70601887 -0.5517337
-0.11798148 -0.1260459 -0.043035354 0.0061442265 -0.18986563 -0.6700519 -0.3346899 -0.120179206
-0.41347063 -0.19238017 -0.07064761 -0.01782541 -0.10623099 0.05788551 -0.15108296 -0.19133052
0.40355498 -0.14891912 -1.2081902 -0.5131218 -0.39928937 -0.36228815 -0.46062487 0.31347218
0.33156526 0.18032388 -0.108183846 0.302918 0.3738073 0.50991255 -0.48128065 -0.16519427
-0.009149737 0.12612128 0.40670937 0.37399012 0.0382207 0.028063862 -0.13836819 0.49072117
0.23915479 0.42191908 0.28788424 0.053661007 -0.19799127 0.26574427 0.12806138 0.16701287
-0.14281686 -0.4033617 -0.2900673 -0.38461772 -0.27356446 -0.1480628 -0.19524856 -0.79497284
-0.25216317 -0.3255831 -0.57011306 -0.528648 -0.26315483 -0.00719739 -0.33738953 0.14241174
00000000: 63bf 353e 0bb3 92be e649 74be a065 f1be
00000010: 189d a2bd 22d1 aebd c586 06be b5cd cd3d
00000020: 56f8 2e3e 2436 54be 0885 023e b508 253f
00000030: 1a6b 6f3e a8c7 93be a5b6 a43e a418 173f
00000040: 892b 23bb 99cb 583c 47ae bebd e716 813e
00000050: 6033 3cbe 8158 00bf 29d3 85bd 7e16 8cbe
00000060: 0911 0cbf 1498 eabe 516f d53e 0ffc 523e
00000070: d306 b4be 3566 7d3e 24f3 f53e 322a e43d
00000080: 4c9a 9dbe dc50 46be 6638 94bb 6d68 e33e
00000090: ee59 473e eb60 973e e68e f9bd 9de0 ec3d
000000a0: cf47 223d 3a25 dbbd 83f9 a43e 784e 4d3e
000000b0: d93d b83d 2487 7dbe a6cc a0be 6648 27be
000000c0: 7dfd acbe dd63 5cbe f5b0 b83e 94a7 8c3e
000000d0: d367 273e 1df9 b33d b54f ac3e 24e2 d93e
000000e0: 214e 943e 3471 71bd 98d8 903d 9734 bc3e
000000f0: 4d19 fe3e 5bd8 60bc 425f 49be 32a3 a8be
00000100: bdd8 ae3d fa9c 06be b4fb e2bd f09c 393e
00000110: 03a8 9d3e 4de1 803c 92a1 003f ebac 2c3e
00000120: 80a2 183f cd1a 323f 0489 213f 3f51 a73e
00000130: 2d80 583e 21b6 b93e 4dc6 723e d0c0 433e
00000140: 3842 b0be fba9 40bd 48ef ff3d b340 13be
00000150: b204 923e cd72 9b3e 8be8 6e3e 9389 16be
00000160: 2a0b 7ebe 485a dcbe 3650 f4be d020 123e
00000170: 9cc4 bfbe 3cb9 77be e6c6 c1be b37c 953e
00000180: b177 21bc e231 94bd f114 ffbe 9330 5cbf
00000190: 6d81 cc3e 09a5 1dbd 4b06 8ebe c105 45bf
000001a0: 2dd1 683e d853 d63d 75c8 5d3f 0634 51be
000001b0: 6b6d b63c 762a 103e d5f9 743e 18e2 86bd
000001c0: 08eb 25be aa26 d13e 40f7 63be 13df da3c
000001d0: 833d 983e e0ea 463e 4497 be3e 3f11 213f
000001e0: 23ae a93e 841d a1bd 6c10 d03d 66e3 ff3e
000001f0: 74eb 19be e834 2abf 7aa3 36bf c838 8e3d
00000200: 114f 623e eff9 28be 0b63 a73e ecc1 673e
00000210: e32a c73c f673 f5bd c45d 2e3e 97fb 303d
00000220: e6f8 49bf 957f 0bbe 9aeb ef3e 6e76 f4bc
00000230: 74d4 e33b 88b8 0d3e cc04 f63d 5d06 8d3d
00000240: aa16 04be 20cf 0cbe ba4e c2be 7ea1 33bf
00000250: f47b a0be 0f4e 7fbe dd6c b6b9 9aa5 9fbe
00000260: 3812 00bf da1b 3ebe a2cb 22bf 1d64 e03e
00000270: e25c 19bf 173f ebbe e7ff 243d 505b 393f
00000280: f8cc c9be fefb 93be a78a 443e 503a 213e
00000290: 536c 3c3d dd9a 073f a42a 2dbe fabc 5c3e
000002a0: 424c aa3d 060a 55be 86b7 a9be c178 c0bd
000002b0: 7093 2b3e e673 38bd 0b88 ffbe 8f52 48be
000002c0: 1490 5d3e 7f9c 82be ecbd 0fbf 5ca2 47bc
000002d0: 6cda 193f 6898 67bc f2c0 ecbe a657 763e
000002e0: 252b 3c3f c489 c33d 6bf5 94be 30ec 343e
000002f0: d23b 733e aad1 02be a7bd 34bf 6b3e 0dbf
00000300: 46a0 f1bd 2d12 01be d745 30bd 8255 c93b
00000310: 236c 42be 8588 2bbf 795c abbe 8420 f6bd
00000320: 6cb2 d3be 4fff 44be b2af 90bd 9806 92bc
00000330: a28f d9bd 5b19 6d3d 7eb5 1abe 26ec 43be
00000340: c29e ce3e 417e 18be faa5 9abf f35b 03bf
00000350: a86f ccbe d57d b9be 06d7 ebbe 6d7f a03e
00000360: ecc2 a93e d3a6 383e 7e8f ddbd 1118 9b3e
00000370: ac63 bf3e a189 023f 6b6a f6be b028 29be
00000380: c7e8 15bc f025 013e 363c d03e a27b bf3e
00000390: 4f8d 1c3d 2fe6 e53c 64b0 0dbe ce3f fb3e
000003a0: fee4 743e c705 d83e 9065 933e a5cb 5b3d
000003b0: 39be 4abe a20f 883e 8622 033e 6c05 2b3e
000003c0: 953e 12be 6d85 cebe b383 94be 9dec c4be
000003d0: a410 8cbe c69d 17be 3def 47be 5783 4bbf
000003e0: 881b 81be d4b2 a6be eef2 11bf 7a55 07bf
000003f0: 3bbc 86be 15d8 ebbb 52be acbe 62d4 113e

bias f4 [10]
-0.28855994 0.19079708 0.24739324 0.1871826 -0.29207394 0.31409985 -0.29711848 0.396705
-0.40563223 -0.100273155
00000000: 21be 93be 4f60 433e a754 7d3e ccac 3f3e
00000010: b78a 95be b2d1 a03e ea1f 98be eb1c cb3e
00000020: 07af cfbe 035c cdbd
