HE-ML/LeNet1_Approx_single_square.pt (torch, 16997 bytes, 6 tensors)

weight f4 [4, 1, 5, 5]
000000 2c cb 8d 3d 48 be 14 bc 72 51 6c 3e 2b 78 6b 3e
       0.069235176 -0.00907857 0.23077944 0.22995059
000010 b2 29 2d 3e 7a 12 24 3e fe 17 19 3e ff d6 a7 3e
       0.16910437 0.16022673 0.14950559 0.32781217
000020 02 71 9d 3e e8 9a f5 3e d3 60 5d be 4a a3 f2 b9
       0.3075028 0.47969747 -0.21618967 -0.00046279497
000030 3b 81 f4 3d a8 41 24 3e 7e 7b 03 3c 5d f1 c5 bd
       0.11938711 0.16040671 0.008025048 -0.09665177
000040 36 c9 99 be 61 52 0d bf 74 7e e6 be 53 9e 5e be
       -0.30036324 -0.55203825 -0.4501835 -0.21740083
000050 c7 00 30 3c b1 db 61 be 66 e2 d9 be 07 35 72 be
       0.010742373 -0.22056462 -0.4255554 -0.23653041
000060 e3 0b de be 8c 6d 14 3f d5 77 c1 3d 8f 12 c8 3d
       -0.43368444 0.57979655 0.09446684 0.09769165
000070 07 db 3b be f7 a5 72 bd f5 a1 de 3e 62 ad 4a 3d
       -0.18345271 -0.059240308 0.43482938 0.049481757
000080 20 a1 8f 3c 2e a2 0a bd 8f 81 95 be 9c 4d ca 3e
       0.017532885 -0.033846073 -0.29200408 0.39512336
000090 16 1a d4 3d 09 76 be be 3e 4c 74 be c6 ad 73 be
       0.10356538 -0.3719943 -0.23857209 -0.23796758
0000a0 64 e9 84 3d 85 7e b7 bd 2b c4 e0 be 8c 88 c1 be
       0.06489828 -0.089596786 -0.43899664 -0.3779949
0000b0 0a 4e 19 3e 2f ef c1 3c 19 d7 ab be 2a b3 63 be
       0.14971176 0.023673622 -0.33562544 -0.22236314
0000c0 82 74 b1 3d aa f8 b1 3d 03 05 a1 bc 49 14 a7 3d
       0.086648 0.08690007 -0.01965571 0.08158166
0000d0 44 ae dc bd e3 51 5b bd ec d1 00 3f cd 49 f4 bc
       -0.10775426 -0.05354489 0.50320315 -0.029820347
0000e0 02 85 2b be e5 d1 86 be 75 87 7d 3e 06 ca 27 3f
       -0.16749957 -0.26332012 0.24758704 0.6554264
0000f0 fe 3b a1 bd 53 c9 ad be 7d 41 df be 6f fe 48 be
       -0.07872771 -0.3394266 -0.4360465 -0.19628309
000100 5e 19 2e 3f 8c ed 4e 3d 65 f0 35 be 2a e1 11 bf
       0.6800746 0.05051951 -0.17767484 -0.569842
000110 e5 3f 29 be 29 39 57 3e 5c f5 55 3e ce 3d 5e be
       -0.1652828 0.21017899 0.20894378 -0.21703264
000120 42 ef 81 be 7b f9 9e be 8d 41 70 be 52 ec b5 3d
       -0.25377852 -0.31049713 -0.23462506 0.08882965
000130 22 f3 3a be 72 44 df bd 8c 67 9c 3c 23 f5 23 bd
       -0.1825681 -0.10901727 0.019092344 -0.040028702
000140 06 c7 18 3e 92 ad e5 3e 39 33 8d 3e e6 c8 bb 3d
       0.14919671 0.44858986 0.27578142 0.09169178
000150 88 41 6d 3d 3a be 93 3e 48 5c af 3e 4a 62 8b 3e
       0.057923824 0.2885607 0.34250093 0.27223426
000160 ce 4b 8d 3d c7 e2 b7 be 1f 6f e9 bc ea c2 e4 be
       0.06899224 -0.35915205 -0.02849537 -0.44679958
000170 e7 9e 38 be e2 ae 82 3e 96 76 05 3d 2f 9a ee be
       -0.18029366 0.2552405 0.032583795 -0.46602008
000180 9f 1d f1 be e9 17 1f 3e da f5 0a 3f 62 2a a9 3e
       -0.47092912 0.15536465 0.5428139 0.33040148

bias f4 [4]
000000 a0 5e b8 3e 8e 3a ac bd 0e 56 93 3e 30 e4 62 3e
       0.36009693 -0.08409606 0.28776592 0.22157359

weight f4 [12, 4, 5, 5]
000000 7e ca 2b be 82 8c 98 bd 34 55 a4 39 51 cc 51 bd
       -0.16776463 -0.07448675 0.00031344 -0.051220242
000010 03 17 50 be c1 b2 0a be 92 57 e5 3d 27 c7 4a 3c
       -0.20321278 -0.13544752 0.11198343 0.012376583
000020 7e c6 31 be 1a 8f 66 be 4d 08 16 be 67 9d 7f be
       -0.17360875 -0.22515526 -0.14651604 -0.24962388
000030 43 46 10 be 1a 09 d1 bd 46 8f 65 bd 93 fb 77 be
       -0.14089303 -0.10206814 -0.05604484 -0.24217062
000040 52 ee 82 be 48 3a 04 be fd 81 01 3e 48 d3 64 3c
       -0.2557245 -0.12912858 0.12647243 0.013966389
000050 22 d0 dc bd a7 45 da 3b 82 ad 2c 3e a2 a1 82 3e
       -0.10781886 0.0066611352 0.16863063 0.2551394
000060 00 72 80 3d 13 2b 1f 3e 9d 22 77 3e 77 c3 8f 3d
       0.06271744 0.15543775 0.24134298 0.07019704
000070 58 17 20 be 09 4b f8 3b 09 cf 38 bc 50 dd 9c 3d
       -0.15633905 0.0075773043 -0.01127983 0.076593995
000080 6d 2c ba 3b 0b 7b 7f 3e b7 5b c6 3d cd 6d a5 3d
       0.0056815655 0.24949281 0.09685462 0.080775835
000090 f8 5a 91 3e b8 67 80 3e ca 44 35 3d d9 28 ff 3d
       0.28389716 0.2507913 0.044255055 0.12458963
0000a0 68 c5 f5 bd e5 a7 ed 3d af 43 cd bc 56 83 2b 3c
       -0.12000543 0.11604289 -0.025056688 0.010468325
0000b0 f4 08 3b bd 81 e1 42 be be 8f 35 bd bf 9c 3e be
       -0.045662835 -0.19031335 -0.044326536 -0.18614481
0000c0 ea e4 5f bb fb ba 8b be 36 7f b6 bd 61 87 6a bd
       -0.0034163543 -0.27291092 -0.08910982 -0.057258014
0000d0 a7 c3 68 be a0 b3 1f 3e 0e b6 33 3e b0 03 37 3e
       -0.22730885 0.15595865 0.17549917 0.178725
0000e0 7f a3 43 3e 8a 9b b2 3d c4 c2 8a 3e ad 69 40 3e
       0.19105338 0.08721073 0.2710172 0.18790312
0000f0 95 d5 72 3d 8f 5f 4c 3e be 75 c8 3e 8d e2 91 3e
       0.05928572 0.19958328 0.3915233 0.28493157
000100 3b 66 03 3e b3 b7 10 3e 01 17 64 3d 81 f3 53 3e
       0.12831967 0.14132576 0.055686 0.20698358
000110 9d 1a 5e 3e fe 76 96 3d b7 44 bb bd 96 25 2d be
       0.2168984 0.07346915 -0.09143966 -0.16908869
000120 39 f2 6d be 69 ce b2 bd 2f 23 90 be 2a bf d7 3d
       -0.23236932 -0.08730776 -0.28151843 0.105345085
000130 62 24 f7 3c 70 9f 8b bc 7f 73 9c bd ea 36 35 be
       0.030168716 -0.0170438 -0.07639217 -0.1769673
000140 f5 5c 35 3e cd 26 56 3b 68 cb cb 3d 3f e0 35 be
       0.17711242 0.0032676936 0.09950906 -0.17761324
000150 5b 89 77 be 5d 16 7d 3d 27 2d d4 bd a4 9a 72 3c
       -0.2417349 0.061788905 -0.103601746 0.014807377
000160 72 f0 fe 3d 0d b3 65 bc 29 52 2a be 01 bf b0 bc
       0.12448205 -0.01401974 -0.16632904 -0.021575453
000170 63 f9 b9 3e ca b1 be 3e a1 dd cc bd 25 a4 98 be
       0.3632308 0.37245017 -0.1000321 -0.29812732
000180 09 60 c1 be b0 8a 52 bd a9 52 27 bc 83 0b 28 be
       -0.37768582 -0.051401794 -0.010212579 -0.16410641
000190 98 f7 b2 3d 9a c3 62 bd 51 fb d4 bd 99 6b e2 bc
       0.08738631 -0.05536232 -0.10399497 -0.027639197
0001a0 be 63 12 3e c4 58 c7 3d 36 7f 23 3e db 89 99 3e
       0.14295861 0.097337276 0.15966496 0.29987988
0001b0 85 44 b0 3e f2 9e bd 3e 8f 6e 1d bd 89 d0 bf 3d
       0.34427276 0.37035328 -0.038435515 0.09365947
0001c0 c3 cb db 3e 6a bf d2 3e 9d 96 96 3e 06 5c 8f bd
       0.42928895 0.41161662 0.29411784 -0.06999974
0001d0 11 c9 13 3d ca a1 83 3e 93 a3 81 3e 4c 86 8d 3e
       0.036080424 0.25709373 0.2532011 0.27641523
0001e0 03 60 6b 3e 69 87 60 3e e2 c8 96 3e 66 5a a3 3e
       0.22985844 0.21926655 0.29450136 0.31904906
0001f0 cd e3 ab 3e 4c 88 5b bc 9e fb 2a bd 4c 2b 60 3d
       0.33572236 -0.013399195 -0.041743867 0.05472879
000200 59 1b f3 3d 0f 68 28 3e fc 59 28 3d cd 29 09 3e
       0.118704505 0.16445945 0.04110144 0.13394852
000210 82 d5 81 3c 43 d7 06 bd 3e 34 97 bc 1f a2 53 be
       0.015848879 -0.032920133 -0.018457528 -0.20667313
000220 83 ca 25 bd 71 33 a5 be 2c 75 43 be 86 94 35 be
       -0.040476333 -0.3226581 -0.19087666 -0.17732438
000230 cf ff 36 be 17 bd 46 be 7a 90 a4 be 37 49 74 be
       -0.1787102 -0.1940807 -0.32141477 -0.23856054
000240 4e c8 8c be de a0 9c be 6b 6f 4a be 83 7d 9e be
       -0.2749657 -0.30591482 -0.19769065 -0.30955133
000250 2d 99 4e be 72 2b 7c be 2a f3 1d bc 3c 3b 7c bc
       -0.2017562 -0.24625948 -0.009640494 -0.015394982
000260 1b d7 19 3d a6 1f 90 be af dc c1 bd 93 3f bf be
       0.037558656 -0.28149146 -0.0946592 -0.3735319
000270 47 47 3f 3d a2 0f 8a be ce 6c 97 be 1e 28 ae bd
       0.046698835 -0.26965052 -0.295752 -0.085037455
000280 18 c5 ef be 5c 35 5b 3e 36 5c e1 3d 15 07 40 be
       -0.46830058 0.21407074 0.11003916 -0.18752702
000290 1a 8c 14 bd 07 1d 50 3d 62 26 5c 3e ff 85 e4 3d
       -0.036266424 0.050808933 0.21499017 0.1115837
0002a0 29 57 45 bd 90 18 c6 bd 08 c8 c7 3d ab f0 11 3e
       -0.048178826 -0.09672654 0.0975495 0.14251964
0002b0 bb 78 30 be 59 5e c4 be 82 24 c9 be 43 a9 68 bd
       -0.17233555 -0.38353232 -0.39285666 -0.056802046
0002c0 83 07 04 3e 98 4a 52 bc 94 18 16 3e 19 2b 10 3d
       0.1289349 -0.012835167 0.14657813 0.03519735
0002d0 37 73 1e be 09 ba e7 3c 12 9b 10 3e 77 09 2c 3e
       -0.15473638 0.02828695 0.14121655 0.16800486
0002e0 c5 e4 3c 3e 62 d8 19 bd 72 18 1c 3e 6a b2 af 3d
       0.18446644 -0.037559874 0.152437 0.08578952
0002f0 af a7 7f 3e 06 5e df 3d da 5f 3b 3d 52 c6 ad 3b
       0.2496631 0.109066054 0.045745708 0.0053031826
000300 28 00 48 bd 72 4d 48 3e 25 3e 60 be c0 f7 ee bc
       -0.048828274 0.19560793 -0.21898706 -0.02917087
000310 71 c1 c2 3d 60 43 e9 3d d0 94 6b 3e 1d cd e3 bd
       0.09509552 0.11389804 0.23005986 -0.11123107
000320 09 4d c3 3d d3 60 3e be 52 c8 1a be 2b 46 42 be
       0.09536178 -0.18591623 -0.15115479 -0.1897208
000330 9c ec c6 3d ed 24 cd bd 0f 63 e9 bd 7c a4 73 be
       0.097130984 -0.10016809 -0.11395847 -0.23793215
000340 87 5e 25 be 95 26 b0 bd 55 15 32 bc 5b a7 9e bd
       -0.1614934 -0.08601109 -0.010869344 -0.07746764
000350 de a9 15 bc fd 34 a3 bc 75 9b 32 3e 74 98 94 3d
       -0.009134738 -0.019922728 0.17442115 0.072556406
000360 54 cc 0e 3d 87 15 14 3d 50 3e 0c 3e ec 52 3e 3e
       0.03486283 0.036153343 0.13695645 0.1858632
000370 92 0d 60 3e 66 ca 14 be e4 49 01 be 59 fe 56 3d
       0.21880177 -0.14530334 -0.12625843 0.05248866
000380 30 83 18 3e d6 4f 89 3b a7 cf 39 be 9c 80 b2 bd
       0.14893794 0.0041904254 -0.1814562 -0.087159365
000390 fe 3b 4e bd 93 e2 45 3e 88 c1 7a 3d b2 07 ee 3d
       -0.05035018 0.19324712 0.061219722 0.116225615
0003a0 72 84 2f bd 32 15 08 3b d5 a7 1c 3e 47 dd 33 3e
       -0.04285092 0.0020764587 0.15298398 0.1756488
0003b0 d9 ac 73 3d 00 05 74 3d f5 8a b4 3c 64 17 56 bd
       0.059491012 0.05957508 0.022038916 -0.0522684
0003c0 2d 26 78 bd 15 dc 42 bd 3c 51 d2 bd af c6 c6 bd
       -0.060583282 -0.047573168 -0.102694005 -0.09705865
0003d0 dc a3 8f be 17 5d 52 be 54 48 8f be 28 b3 c0 bd
       -0.28054702 -0.20543323 -0.2798487 -0.09409171
0003e0 fa a4 69 be b1 87 34 be 6e 05 f7 bd 12 73 73 be
       -0.2281684 -0.17629887 -0.120615825 -0.23774365
0003f0 4e 9d f8 bc 92 4f 63 be 1e 14 23 bd 03 e3 19 bd
       -0.030348446 -0.22198322 -0.039814107 -0.03757001

bias f4 [12]
000000 0a 0f 98 be 7e bb 98 3d c5 1f ae be c4 e7 ca be
       -0.29698974 0.07457636 -0.34008613 -0.39629948
000010 8b 34 77 bd 28 cd 5f 3d 7b f5 f8 be c9 eb 5f 3e
       -0.060352843 0.05463901 -0.48624787 0.21867289
000020 ce 66 34 be 9b 7a b4 3d dd a8 c4 3e 65 21 08 bf
       -0.17617342 0.08812448 0.38410082 -0.53175956

weight f4 [10, 192]
000000 7f 19 b2 bc 04 c8 4a bd b1 fa c7 3c 01 bc 6b 3c
       -0.021740673 -0.049507156 0.024411531 0.014388085
000010 d4 b8 b9 bc 57 ee 4a be 9b 7d f7 bd 73 b3 33 3e
       -0.02267114 -0.19817482 -0.12084504 0.17548923
000020 3c 9d 04 3e b1 14 82 3d 98 29 71 3c 5e 1a 97 3d
       0.12950605 0.06351603 0.014719389 0.07378076
000030 c1 5c c2 3d d9 59 bd 3d 47 4d 0d be 99 be 60 be
       0.09490348 0.09245653 -0.1379901 -0.21947707
000040 4a a0 80 bd ad 55 42 be 25 21 0f 3d 05 f3 41 be
       -0.06280573 -0.18977995 0.03494372 -0.18940361
000050 de e0 6a bd cb 64 fc bd 93 9f 36 be 3f d1 1c be
       -0.057343356 -0.12323912 -0.1783431 -0.15314196
000060 f5 fd 56 be fe 4b b4 bc 92 fa 06 be 57 fc cd 3d
       -0.20995314 -0.022008892 -0.13181522 0.10057896
000070 06 1b e6 3c 26 27 00 3e 58 bf f0 3d 74 15 9d 3d
       0.028089058 0.12514934 0.11755246 0.076701075
000080 64 54 92 3d d7 2c 85 bd 65 e7 f9 bc 6c 04 99 3d
       0.071450025 -0.06502693 -0.030505845 0.074715465
000090 72 99 b1 bd 7f e4 31 3e 2d 65 a0 bd cc 1e 37 be
       -0.086718455 0.1737232 -0.07831798 -0.17882842
0000a0 90 24 e9 3d c2 e3 f6 bc 12 52 e9 3d 34 3a bf 3b
       0.11383927 -0.0301379 0.11392607 0.005835796
0000b0 76 79 a0 3d 6e e8 e5 3d d9 7b b4 bc 83 0d cb bd
       0.07835667 0.11225973 -0.022031711 -0.099146865
0000c0 21 09 a8 3d a5 17 93 bd 9e 11 cb 3c 56 20 9a 3d
       0.08204866 -0.07182244 0.024788674 0.07525699
0000d0 6c 9e d1 3d ff d7 5b 3d 8f b6 52 be 77 91 8b 3d
       0.10235295 0.053672787 -0.20577453 0.068148546
0000e0 e5 75 90 3e 3f e4 c5 3d 90 74 ad bc 13 a8 39 be
       0.28214946 0.09662675 -0.021173745 -0.18130521
0000f0 93 96 88 3e 25 a2 6e 3d 32 0b 12 be 87 3f 29 be
       0.2667738 0.0582601 -0.14262083 -0.1652814
000100 79 8e 34 3e 3c 7b 81 bd 3b 10 a9 bd 0b 9a 55 bd
       0.17632474 -0.06322333 -0.08255049 -0.05214886
000110 83 48 15 3e 99 bd 31 3d ab 85 ba bd 7d f6 4e 3e
       0.14578442 0.043393705 -0.091075264 0.20211215
000120 e7 b2 4b 3c e8 69 99 bd 17 91 aa bc c9 32 d9 3e
       0.01243279 -0.07490903 -0.020821137 0.42421558
000130 c9 d4 57 be 77 60 5b be 0b a2 bb bd 3f db 8f 3e
       -0.21077265 -0.21423517 -0.091617666 0.2809696
000140 da a1 fd bd 0a d7 03 be 73 85 7e 3e ea d5 cf 3d
       -0.12384386 -0.12875 0.24855594 0.10148223
000150 67 0f a2 3c 5c 26 20 3e a4 c3 f8 3d 21 e7 3e 3e
       0.019782735 0.15639633 0.121466905 0.18642856
000160 18 d7 14 bd 20 4f 09 bc 3c 41 46 3c 26 ea e3 3d
       -0.036337942 -0.008380681 0.012100514 0.11128645
000170 2e e8 e6 3d bf 0c 37 be 45 5e 84 be ea c7 56 be
       0.112747535 -0.17875956 -0.25853172 -0.20974699
000180 49 18 d3 be f7 44 30 be 97 db 4f bd 01 d1 b6 3d
       -0.41229466 -0.17213808 -0.050746527 0.08926583
000190 5a ba 48 be d1 ff 07 bd 0c 1e 2d 3e 28 da 6f 3e
       -0.19602337 -0.03320295 0.16905993 0.23423064
0001a0 8b 5a 3f be 5e 2f 2e bd b5 cf e2 bd b2 01 86 3e
       -0.18686883 -0.04252564 -0.11074773 0.26173168
0001b0 9b 5e e5 bc bb dc 0b be a7 fb cb bd 63 95 aa 3d
       -0.027999213 -0.1365842 -0.09960108 0.083292745
0001c0 4e 5a 0b bd 9f 06 ab bb ea 8a af 3d 04 bd 99 be
       -0.034021668 -0.005219295 0.08571418 -0.3002702
0001d0 57 55 22 3d 91 60 d2 3c 06 db 70 be c7 1b cc 3d
       0.039632168 0.025680812 -0.23521051 0.099662356
0001e0 de f5 4c bc fc 4c c5 be d6 49 b1 3e b6 ec 72 3d
       -0.012509791 -0.38535297 0.34626645 0.059307776
0001f0 de 41 2f be 62 e5 82 be e8 d9 17 3d c8 6c 8e 3d
       -0.1711497 -0.2556563 0.037073046 0.06954342
000200 1d e3 28 bc c9 99 12 3e 1f 70 d8 3d a7 78 4e 3e
       -0.010308054 0.14316477 0.105682604 0.20163213
000210 62 29 3b be 6e 42 a2 be 84 4e d3 3b 66 4a be bd
       -0.18277505 -0.31691307 0.006448569 -0.09291534
000220 e8 20 2f be ec a0 94 bd 37 fd 07 bd f7 be 1d 3e
       -0.17102396 -0.07257256 -0.03320047 0.15404879
000230 61 ba 83 bd 7f 6e 0a 3e f1 f5 62 3d fe 75 3f 3d
       -0.06432033 0.13518713 0.05541033 0.046743385
000240 72 fa b6 bb bd 60 e3 3c a2 46 19 3e dc 06 c1 bd
       -0.0055840546 0.02775609 0.1496835 -0.094251364
000250 1b cf 99 3d 97 2d 86 3e 82 9a de bd f0 1c eb 3c
       0.07510205 0.26206657 -0.10869314 0.028700322
000260 57 9b 78 bd c6 11 07 bb 74 f1 56 3d 6e ec 70 be
       -0.06069502 -0.002060996 0.05247636 -0.23527691
000270 f0 71 52 3e 62 0d 24 be 19 c9 34 bd 5a 5d 82 be
       0.20551276 -0.1602073 -0.044137094 -0.25461847
000280 c0 ba 86 be bf e1 35 bd a6 d2 12 3d 9d b4 b4 3e
       -0.26314354 -0.04440474 0.03584542 0.35294047
000290 3c b2 2f be 1e 96 3e 3e 3c c2 10 3e df 33 63 3e
       -0.17157835 0.18611953 0.14136595 0.22187756
0002a0 12 7e f2 bd 35 65 ad be 19 6f 30 3e 59 0b 4c 3d
       -0.11840452 -0.33866277 0.1722988 0.04981551
0002b0 52 e5 0e be 36 80 80 3d f5 ab f5 bd 9c 1b 59 3d
       -0.13954666 0.06274454 -0.11995689 0.053004846
0002c0 60 98 15 be 1f 0b 09 bd 64 b2 fd 3d 05 f1 c5 3e
       -0.14608908 -0.03345787 0.12387541 0.38660446
0002d0 3d f4 96 3e 9a 4e 0a be 45 4f f2 bb da 06 4b 3e
       0.29483214 -0.13506547 -0.0073947036 0.19826832
0002e0 1a fe d7 bd 86 37 f0 bd 29 ab b8 bd 9d ea e1 3c
       -0.10546513 -0.1172934 -0.09017021 0.027577693
0002f0 11 ca da 3d 25 9c 5f bd 6b 05 07 bd 66 ba 38 be
       0.10683072 -0.05459227 -0.03296415 -0.18039855
000300 6c 2e b6 3c 94 9c 82 3e 14 79 b1 3c da 50 1a 3e
       0.022238933 0.25510085 0.02166418 0.15069905
000310 bb 35 05 bf 11 d5 46 3d 9b b7 ba 3d 1c 91 69 3e
       -0.5203511 0.04854304 0.09117051 0.22809261
000320 07 d3 3b be d8 d5 b7 3d 9b 17 16 bc 60 0f e0 bd
       -0.1834222 0.08976334 -0.009160901 -0.109404325
000330 bc e9 1e be dc 3e 84 bd b6 e9 3c 3e bb 05 be bc
       -0.1551885 -0.06457302 0.18448529 -0.023196092
000340 45 f7 73 bd 43 a9 55 be 92 cf 5a be 74 3b 66 be
       -0.059561986 -0.2086535 -0.21368244 -0.22483617
000350 7e d9 2e be d6 41 3c bd ae 55 27 bd 48 2c ff bd
       -0.17075154 -0.045961224 -0.040853195 -0.12459618
000360 d9 ab 72 3e ba ee 56 be 85 dd 0d be de e9 f9 3d
       0.23698367 -0.20989504 -0.13854034 0.1220281
000370 3e e7 58 bd c3 5e ad bd 23 d7 1e 3e 00 34 95 3e
       -0.052954905 -0.0846534 0.15511756 0.29141235
000380 f8 1b be bd fd f7 38 bd a8 16 3e be 38 68 91 be
       -0.09282678 -0.045158375 -0.1856333 -0.28399825
000390 33 df 73 39 94 dc dc bc 33 26 eb bd 84 52 27 be
       0.00023257434 -0.026960649 -0.11481895 -0.16340071
0003a0 93 60 66 bd d8 b3 9f bd a6 20 8f 3d d4 7d a3 3d
       -0.056244444 -0.07797974 0.06988649 0.07982984
0003b0 82 38 cb bd 64 08 55 bc 46 ef 64 3b 2b 07 ec 3c
       -0.099228874 -0.013002489 0.0034932657 0.028812012
0003c0 84 7e b0 3d 98 5c dd 3d 4f 09 ff 3d b7 86 f8 bd
       0.08617881 0.108086765 0.12452947 -0.1213507
0003d0 a5 e4 a7 be 6a e8 cb bd eb e6 38 3e b6 62 bb bd
       -0.3279163 -0.09956439 0.18056838 -0.09149687
0003e0 57 c6 47 be 3d 04 5d be 4a 2a 7e 3e fd 09 08 bd
       -0.19509254 -0.21583648 0.2482082 -0.03321265
0003f0 6f f8 4b be 76 10 30 3d 54 20 22 bc 5d 8b f1 bd
       -0.19918989 0.04298445 -0.009895403 -0.117941596

bias f4 [10]
000000 9a 00 26 bd 22 13 c2 3d 3f f9 84 3e 82 43 eb be
       -0.040527917 0.094763055 0.2597141 -0.45949942
000010 6a 59 77 be 86 75 99 3e f4 f7 40 bd 6c d8 43 3e
       -0.24155203 0.29972476 -0.047111467 0.19125527
000020 e2 b0 a4 bc 1f 54 f3 bd
       -0.020103876 -0.11881279
